examples/wave2wave.pth (torch, 367290 bytes, 127 tensors)

encoder.input_conv.weight f4 [32, 1, 1]
000000 d3 d4 52 bf ce 41 81 bf 70 df 49 3e 97 68 2b 3e
       -0.82355994 -1.0098207 0.19714141 0.16739117
000010 91 57 fa 3e eb 2b fa 3e 43 5d 89 3e ad 8c 6e 3f
       0.48894933 0.48861632 0.26828966 0.93183404
000020 bc 1e 28 bf 5d 99 b1 3e aa c7 52 3e 2e 3e 33 bf
       -0.65671897 0.3468732 0.20583978 -0.70016754
000030 b9 56 dc bd 1e 3a 47 3f 1e 54 21 bf 64 6d f4 3d
       -0.107587285 0.77823055 -0.6301898 0.11934927
000040 88 0b 78 bf f9 51 88 bf 07 99 6d 3f 0c 11 f2 be
       -0.96892595 -1.0650016 0.92811626 -0.4727863
000050 6e ca 6b bf 82 27 99 be a2 a0 82 3f d5 b7 1a bf
       -0.9210576 -0.29912955 1.0205271 -0.60436755
000060 59 42 18 bf 4f d3 28 bf dc f3 0e bf 95 c2 32 3f
       -0.5947624 -0.6594743 -0.5584085 0.6982816
000070 8c 74 d3 be 49 34 52 bf 33 8d d6 be 6a 72 41 bf
       -0.41299856 -0.8211103 -0.419046 -0.75565207

encoder.input_conv.bias f4 [32]
000000 ce bb 62 bf c7 9d 15 bf ae 82 5d bf 5d e3 d3 be
       -0.8856782 -0.58443874 -0.86527526 -0.41384402
000010 1b 0c 4d be bd e3 ac bc 10 97 c3 bd 1f 73 4b be
       -0.20024149 -0.021104688 -0.09550297 -0.19868134
000020 ff d2 7b bf 5b 0d 14 3f 48 eb 41 bf 5f 61 29 bf
       -0.9836883 0.5783288 -0.75749636 -0.661642
000030 a1 6d d0 be 2b a4 54 bd 4c 22 3d bf a0 51 79 3f
       -0.4070864 -0.051914375 -0.7388046 0.97390175
000040 4a 08 71 3f e9 f7 23 3f 71 f3 69 bf 2c b0 b1 3e
       0.94153273 0.64050156 -0.9138709 0.3470472
000050 a4 c2 43 3f 96 69 c8 3c 80 08 02 3f 65 52 1b bf
       0.76468873 0.02446441 0.5079422 -0.606726
000060 91 16 a1 be fe ac 1a 3e 58 ef 4b bf ca 86 19 3f
       -0.3146253 0.15105054 -0.79662085 0.59971297
000070 e8 9d 1f bf dc 5f 66 3d 51 95 c6 3e 9d fa 32 bf
       -0.6235032 0.056243762 0.38785794 -0.69913656

encoder.wave_layers.0.conv_dilation.weight f4 [32, 32, 2]
000000 e8 e6 04 bd 72 56 85 bd f6 95 e2 3d 93 17 e3 3b
       -0.03244677 -0.06510629 0.11063759 0.0069303005
000010 ee eb a2 bd b2 ed a3 3d 22 b6 78 bd be 11 d3 bd
       -0.07955156 0.08004321 -0.06072057 -0.103061184
000020 2a af ec bb 3e 47 83 bd df f5 96 bd a2 da 29 3d
       -0.0072230296 -0.06410073 -0.07371115 0.04146827
000030 0f 50 ef bd cd d6 1b 3d e7 58 c6 bd fe d4 00 be
       -0.11685192 0.038046647 -0.096849255 -0.1258125
000040 c9 45 19 3e dc e7 9d 3d ab fc 56 3d 92 67 85 3d
       0.14968027 0.07710239 0.052487057 0.06513895
000050 55 5e b1 3d 0e 7a 61 bd bb 3d ee 3c a2 97 f7 3d
       0.086605705 -0.05504804 0.02908217 0.120894685
000060 b8 72 49 3d 1c 8c af 3c 23 e0 c4 bd f7 91 e2 bd
       0.04918167 0.021429114 -0.09613063 -0.11062997
000070 11 25 b5 3c e8 95 3b bd ec ca 90 3d 23 a8 95 3d
       0.022112401 -0.04579726 0.07069954 0.0730746
000080 c7 58 1f 3e f6 eb 53 bd e8 3a 1c bd 38 f7 d5 3d
       0.1556121 -0.0517387 -0.038142115 0.10447544
000090 07 82 a8 3d 60 aa 39 3d 46 57 dc 3a 20 1b a2 bd
       0.08227926 0.045328498 0.0016810677 -0.0791533
0000a0 42 fe 0b 3e 4c d0 0c 3e 40 bb b8 3b e1 29 54 3d
       0.1367121 0.13751334 0.0056375563 0.05179775
0000b0 12 12 08 bd 6c 75 94 bd 05 84 ef 3d 3c ab 9e 3c
       -0.03322036 -0.07248959 0.116951026 0.01936876
0000c0 e7 eb c5 3d 2c 58 f3 3c eb bc e4 3d e8 3e d3 3c
       0.096641354 0.02970513 0.11168846 0.025786832
0000d0 4b 57 b4 3d 07 70 f5 3d 9b 22 ff bc 3f 3f 63 bd
       0.08805712 0.11984258 -0.03114443 -0.055480238
0000e0 64 d4 6d 3d 74 38 20 3c 78 16 9e 3b 99 6b 1b 3d
       0.05806388 0.0097790845 0.004824456 0.03794441
0000f0 8b 16 87 39 7a b9 af 3d 25 ca 9f 3c 7b 4e 9b 3d
       0.00025766002 0.08580299 0.01950557 0.07583328
000100 5f b2 31 3d 92 53 c9 bd 2b b1 6a bd bd 0f 8b bd
       0.043383 -0.09830393 -0.057297867 -0.06790111
000110 ec 0e 71 3d ac 37 c2 bb ad df 72 bd 7e 61 69 3d
       0.05885212 -0.0059270468 -0.059295345 0.05697774
000120 dc b7 02 be 24 67 00 3e f6 22 0b be 74 b2 bc 3c
       -0.1276545 0.12539345 -0.13587555 0.023034312
000130 41 b8 06 be c1 0a ab 3d 51 34 70 3c 81 1e 6b 3a
       -0.13156225 0.083516605 0.014660911 0.0008969084
000140 f2 49 aa bd d3 21 88 bb 7a 2e 73 3d 0c c9 6d 3d
       -0.08314885 -0.004154423 0.059370495 0.05805306
000150 af 89 a0 3d 24 60 e2 3c 73 31 fb bc 42 2d 3b bc
       0.07838761 0.027633734 -0.030663228 -0.0114243645
000160 bc d2 3f 3d fc 00 1f 3d af 0e 41 be 8e da cf 3d
       0.04683183 0.0388193 -0.18853258 0.10149108
000170 04 93 0e bd 54 04 04 3d 19 a7 37 bc 60 4d 74 bd
       -0.034808174 0.03223069 -0.011209273 -0.059644103
000180 f8 63 be bd ea bb bd bd be bf 22 3e 57 96 84 bc
       -0.09296411 -0.092643574 0.15893456 -0.016184969
000190 b1 8c 66 bd d9 22 5e 3d d9 4f 9c 3d 62 58 e2 3d
       -0.056286518 0.054232452 0.07632417 0.11052014
0001a0 b1 c7 88 3d 4d 5a 93 bd 38 7f 92 bc ed cb e4 bd
       0.06678713 -0.07194958 -0.017882928 -0.11171708
0001b0 6f 32 fd bc 4a 13 86 3d 96 c1 2d bd 81 a1 94 3c
       -0.030907838 0.06546648 -0.042420946 0.018143417
0001c0 6a 28 a7 bc 2e 86 ed 3d 3d 1f c1 3d e9 c2 d9 bd
       -0.020405013 0.11597858 0.09429786 -0.10632879
0001d0 db fe 4c 3d 9f 30 26 bd b5 c9 f9 bd 3d ce f8 bc
       0.050047737 -0.040573712 -0.12196676 -0.03037178
0001e0 ce 22 a1 3c 2b 88 08 bd 1e 21 87 3c b9 60 dd bd
       0.019669916 -0.033332985 0.016495284 -0.10809464
0001f0 d7 ed be 3c 23 80 91 3c 17 d9 80 bd 9b e2 f2 3d
       0.02330677 0.017761296 -0.062914066 0.11859628
000200 e7 a1 87 3d ea fb ce 3d b6 21 94 bc 6a 0b 51 3d
       0.06622677 0.101066425 -0.01808248 0.051036276
000210 3d ba 03 3d 1c 50 d9 3d 2a 0f 9f bd ae 2b 42 bd
       0.032160033 0.10610983 -0.07766564 -0.047404937
000220 20 5a 2e be 0e cd 7b bd c7 5c 49 3d 66 2b 80 3d
       -0.17026567 -0.061474852 0.049160745 0.062582776
000230 01 32 36 bd 0a 56 5f 3d 3c bb 2f be 5f 38 e9 bd
       -0.04448128 0.054525413 -0.17161268 -0.11387705
000240 36 98 3d bd 3d b4 55 3c 3c 5c 04 be 74 4d 67 3c
       -0.046287738 0.01304346 -0.1292581 0.014117587
000250 35 b5 f0 bd e1 68 a8 3d 72 4c 8f bd 75 23 a3 3c
       -0.117533125 0.08223129 -0.06997003 0.019914368
000260 b8 19 b3 3d e9 a5 6c bd 17 2f c1 bd 5f a2 e9 bd
       0.0874514 -0.05777541 -0.0943281 -0.11407923
000270 9d be 15 3e 50 c3 a5 3d cf 97 98 bb bb b1 b0 bd
       0.14623494 0.080938935 -0.004656769 -0.086276494
000280 a1 c8 19 3d 04 72 45 3d d6 9d 2f 3e 2a 44 0d 3e
       0.03754485 0.048204437 0.17150053 0.13795534
000290 bc fe 23 bd 0a 28 f7 bd a1 db 8f bd 02 ee b0 3d
       -0.040037856 -0.12068184 -0.07024313 0.086391464
0002a0 eb ee 82 bc b7 ac 55 bd 90 d8 52 bc 2a 0b 00 3e
       -0.015983066 -0.052166667 -0.012869015 0.12504259
0002b0 e6 27 14 be 6f 6f 7e ba 77 75 e4 3c f3 12 7f 3c
       -0.14468345 -0.0009705936 0.027888043 0.015568483
0002c0 e6 a7 91 bd 13 09 96 bd 89 0f 64 bc 7e ae 6e 3b
       -0.07112102 -0.073259495 -0.0139197195 0.0036419923
0002d0 f4 0a a2 3c f3 92 cb 3d 9b 54 99 3d ba f7 57 3d
       0.019780613 0.09940138 0.0748684 0.052726485
0002e0 a2 2e 39 3d 58 cc 7c bc ab de 10 3e 90 07 9e 3d
       0.04521049 -0.015429579 0.14147441 0.07716286
0002f0 d7 d6 c3 3d 9e 07 dd 3d 35 df a0 bd 26 34 c7 3d
       0.09562462 0.107924685 -0.07855073 0.097267434
000300 5f 2a df 3d f8 24 2a 3d 6a b9 a1 bd 90 5b c6 bc
       0.108967535 0.041539162 -0.07896693 -0.024213582
000310 96 a1 3e 3b 03 b3 94 bd 1c ec 4e bd 59 8a 88 3d
       0.0029088012 -0.07260706 -0.05051814 0.06667013
000320 ca aa cd bd 76 b3 b8 bd 43 09 fc bb 00 ed bd bc
       -0.10042341 -0.090186045 -0.007691534 -0.0231843
000330 c9 05 c5 3d 7a 95 3f 3d a6 60 83 3d 75 68 15 3d
       0.09620244 0.04677341 0.064149186 0.03647657
000340 b2 47 a9 3d 21 ab 78 bd 1f b5 23 3d 91 c1 db bc
       0.08265628 -0.060710076 0.039967652 -0.026825698
000350 57 ec 43 bd 21 6a a2 3d 6d 9c fa bd ed 43 c6 bd
       -0.047832813 0.07930399 -0.12236867 -0.096809246
000360 0f df 68 3c b1 b0 1b 3d 0f d5 d3 bd c8 f7 46 ba
       0.014213338 0.038010303 -0.10343372 -0.0007590023
000370 2e 93 be 3c 68 54 d1 bd da 05 bd bd c2 7b f4 3c
       0.02326354 -0.10221177 -0.09229632 0.029844169
000380 7c 34 b0 3d ff 3d e5 3d d7 a3 fa 3d bd 69 12 3c
       0.086037606 0.111934654 0.12238281 0.008936343
000390 77 8e 00 bc d9 e4 0d be fc e8 b7 3d 79 6d 17 bc
       -0.007846466 -0.1385683 0.08979985 -0.009242409
0003a0 64 67 d4 3d 6d d3 27 3c cd 17 75 bd 1c 48 09 3d
       0.10371283 0.010243279 -0.05983715 0.033516034
0003b0 cc 58 8f 3d 09 be ae bd 8a 87 f8 bd 1f 9c df 3d
       0.069993585 -0.0853234 -0.12135227 0.109184496
0003c0 4b 82 5e 3d bf 75 09 3d 33 e8 c1 3d e6 5f f8 bc
       0.054323476 0.033559557 0.094681166 -0.030319165
0003d0 50 3b 0c 3d 82 74 d4 3d c8 de d6 3d 38 8a 8a bc
       0.034236252 0.103737846 0.10491711 -0.016911611
0003e0 23 a6 76 bc e2 4b c4 3b d0 f2 d2 3d 29 3a c7 bd
       -0.0150542585 0.0059904912 0.10300219 -0.0972789
0003f0 35 f2 27 bc 32 80 0b 3d da a6 a8 bd ee f8 ec bd
       -0.010250618 0.034057803 -0.082349494 -0.11570917

encoder.wave_layers.0.conv_dilation.bias f4 [32]
000000 22 9e c2 bd 50 61 b8 bc c8 ad 34 bd 40 31 65 3d
       -0.09502818 -0.02250734 -0.044111043 0.05595517
000010 a6 eb 90 3d 0b e4 ba 3c 1b 4b 01 3d 1b e9 a5 bd
       0.07076196 0.022813817 0.031565767 -0.08101102
000020 77 11 0e be 41 8f 09 3c 60 88 8d 3c e1 3b 0d bd
       -0.1387385 0.008395971 0.017276943 -0.034480933
000030 85 1a 24 bd 73 ae c2 bd f6 31 7a 3d e4 85 85 bd
       -0.040064353 -0.0950593 0.061082803 -0.06519678
000040 1d 54 c1 3d 6c fa f8 bb 65 9f d0 3d 96 a6 f7 bd
       0.094398715 -0.007598212 0.10186652 -0.120923206
000050 33 95 56 bd 67 c7 73 3d 29 00 81 3b 84 f6 a9 3d
       -0.05238838 0.059516337 0.0039367867 0.08298972
000060 76 6c 6e bc dd 78 c8 3d e8 c6 ec bd 4c 1a db bd
       -0.014552226 0.09788678 -0.11561376 -0.10698375
000070 b6 3b db bd f6 ef 52 bd 5e 1e 81 3d ae b1 83 bd
       -0.10704748 -0.051498376 0.0630462 -0.06430374

encoder.wave_layers.0.conv_filter.weight f4 [32, 32, 1]
000000 de cc a4 3d a4 33 46 3e d1 23 c0 bd 58 c3 14 be
       0.08046888 0.19355637 -0.093818314 -0.14527643
000010 50 77 cf 3d e0 3f 8d bc 11 71 9e bc e2 c4 a8 3c
       0.10130179 -0.017242372 -0.019341024 0.020601694
000020 91 97 9d 3d 70 86 12 3e 48 10 56 bc ea a0 2e 3d
       0.076949246 0.14309096 -0.013065405 0.04263393
000030 50 8f 83 3d 54 85 44 3e d2 a8 cd 3d df a7 84 be
       0.06423819 0.19191486 0.100419655 -0.25909325
000040 09 4f 05 3e 91 6f d2 3d ca d8 94 3d 63 21 31 3d
       0.13018431 0.10275186 0.07267912 0.04324473
000050 5d 2e e1 bd 2f 15 50 3e 61 82 0e 3e 06 a0 05 bd
       -0.10995171 0.20320581 0.13916923 -0.032623313
000060 b4 73 9d bd 4f f7 3b bd d6 f3 70 3d 15 6d 84 3b
       -0.07688084 -0.04589015 0.05882629 0.004041324
000070 91 66 cf bd 97 0a 79 3d 84 ba 4d bc ab b5 a7 3d
       -0.10126985 0.060801115 -0.012556676 0.08188947
000080 a6 b0 27 bd ca 05 11 3e af 73 fa 3c 8a 0e 05 3e
       -0.04093995 0.14162365 0.03057274 0.12993827
000090 43 2e 25 3d f8 c9 bb be ba 5a e3 3d 02 89 a7 bd
       0.04032732 -0.36677527 0.11101289 -0.08180429
0000a0 7f 07 53 be d9 2d 14 3d 89 e5 27 3d 10 8b a0 3e
       -0.20608328 0.036176536 0.040990386 0.31356096
0000b0 90 2c 18 bd 27 ab 89 bd e1 e0 20 be 7a 63 2c 3d
       -0.037151873 -0.06722098 -0.15710784 0.042087056
0000c0 c1 8f f8 bd af a8 b9 bd b3 34 74 3e 9f 60 b3 3c
       -0.12136794 -0.09065377 0.23848228 0.021896658
0000d0 32 65 e4 3d 0f ee 8c be 90 11 17 3d df 14 1e be
       0.11152114 -0.27525374 0.036881983 -0.15437649
0000e0 4b ae c3 bd c6 18 4e bd b6 1c 9f bc 4a 23 91 bd
       -0.09554728 -0.050316595 -0.01942287 -0.07086809
0000f0 54 12 4f 3c 62 96 99 be 55 b5 f4 3d 3b e6 c5 3e
       0.012638647 -0.29997545 0.11948649 0.38652214
000100 f1 9c ab bd e4 57 90 3d 44 cc d3 3d c4 97 03 be
       -0.083795436 0.07048014 0.10341695 -0.12850863
000110 2b 56 07 3d 87 a8 c2 bc ee 98 80 3d 87 9e 47 bc
       0.03304116 -0.023762 0.06279169 -0.012183792
000120 19 2b e0 3d 23 e8 16 3d a1 11 16 3d 6c f9 96 bd
       0.1094572 0.036842477 0.036637906 -0.07371792
000130 b0 3a 35 3e 18 3b 12 be 17 3a 35 3d 34 fc e1 3c
       0.17698169 -0.14280355 0.044244852 0.02758608
000140 7b 1f 1e be c8 f4 73 3b 51 b6 06 3e 72 34 a7 bd
       -0.15441696 0.0037224758 0.13155486 -0.081643
000150 de 36 e9 3d 70 e0 05 3e 2b 20 a7 bc 11 32 1e 3e
       0.11387418 0.13073897 -0.020401081 0.15448786
000160 c4 fa 27 be 2c 6b 8b 3d 6e 49 83 3b b4 1d 32 bd
       -0.16404253 0.06807551 0.0040065562 -0.04348536
000170 21 2a 47 3d f9 11 09 3e 52 f4 35 3d e7 0d f5 bc
       0.04862416 0.13385762 0.044422455 -0.029913856
000180 24 22 f0 bd c4 20 ea 3d 6a 79 bf bd 4b ad bf 3c
       -0.11725262 0.11432031 -0.0934933 0.023398062
000190 81 4f 60 3e 05 39 a5 be 86 2e b6 3b 52 58 19 bd
       0.21905328 -0.32270065 0.0055597452 -0.037437744
0001a0 bb 9c fb bd 92 57 cf 3d d7 07 2e 3e 4e 8e bd 3d
       -0.12285753 0.101241246 0.16995178 0.09255658
0001b0 b6 70 2b 3e 1a 06 b7 3c 46 d4 92 bd e0 fe f5 bc
       0.16742215 0.022341777 -0.07169394 -0.03002876
0001c0 1c e2 b1 3d fb d4 8a 3d 52 12 45 3e ff a7 1b be
       0.08685705 0.06778904 0.1924527 -0.15200804
0001d0 a7 64 26 bd d3 61 53 be aa 40 f4 3d 19 80 9b be
       -0.040623333 -0.20642786 0.11926396 -0.30371168
0001e0 95 89 4b be 0d d9 35 be 1e d9 0c be 6f a0 ae bd
       -0.19876702 -0.1775858 -0.13754699 -0.08526694
0001f0 38 47 c4 bd cf 21 a3 3d 11 00 91 bd ec ee 04 3e
       -0.095838964 0.07965433 -0.07080091 0.12981766
000200 ed c3 0b be 5f 49 2f 3d 05 c8 96 bd a4 24 19 3e
       -0.13648959 0.04279458 -0.073623694 0.14955384
000210 3b 38 30 3e 00 ed 85 bd 79 24 bb bd 78 9a 9d 3e
       0.1720895 -0.06539345 -0.09137816 0.30781913
000220 66 75 0e 3d bd 91 9a bd 4c a8 e3 bc bb ea cd 3d
       0.03477993 -0.075473286 -0.027790211 0.10054537
000230 50 a9 4c bd c1 89 80 3e df 04 90 bd 08 78 2b bd
       -0.049966156 0.25105098 -0.07032179 -0.041862518
000240 58 7f 1c bc d4 1a 88 3d 1e 1c c7 3d df ce e4 bc
       -0.0095518455 0.06645742 0.0972216 -0.027930675
000250 ee e4 40 be a6 c7 00 3e 22 de 69 3e eb d9 8c be
       -0.1883733 0.1257616 0.22838643 -0.27510008
000260 fa 75 3d be 57 c4 14 3d c7 be 19 3e 70 43 93 be
       -0.18502036 0.036320057 0.15014182 -0.28762388
000270 44 64 3a 3e 1f cb dc 3d 33 1f 17 3e 4c f1 6b 3d
       0.18202311 0.1078093 0.14757995 0.057603166
000280 b3 a1 65 be b5 0f d1 3c 78 1f 8b bd 1a 02 21 3e
       -0.22424965 0.025520185 -0.067931116 0.15723458
000290 3f 94 b8 b9 30 8f 07 be cf 3c 33 3d a0 35 d4 3d
       -0.00035205667 -0.13238215 0.043759163 0.10361791
0002a0 93 2a 0f be 60 20 a7 bd 92 49 41 bc cf 13 31 be
       -0.13981085 -0.08160472 -0.011797326 -0.17292713
0002b0 d4 8b 51 3d 7d 5a 51 bd a7 af 2e 3e 51 1c 1e 3d
       0.05115874 -0.051111687 0.17059194 0.038601223
0002c0 e5 13 01 ba ba 4a a0 3d ca 69 45 be dd 07 0f be
       -0.0004923924 0.07826753 -0.19278637 -0.13967843
0002d0 fc 03 e6 3d c1 46 94 3d 5e af ac 3d 8c fa 5f bc
       0.11231229 0.07240058 0.08431886 -0.013670575
0002e0 64 69 7a 3d 33 06 21 bd 75 84 c1 3d 56 2e 5b be
       0.061135665 -0.039312553 0.09449092 -0.21404395
0002f0 8e 34 5e bd 75 ae be bd e2 c1 41 3e 8c b2 85 bd
       -0.05424934 -0.09310619 0.18921617 -0.06528196
000300 fc 16 5e 3c 9e db 1e 3d 39 7b 26 be 0f dc e9 3d
       0.013555285 0.038783662 -0.16257943 0.11418926
000310 ce 03 e9 3c bb f5 d1 bd 13 b5 13 3e 51 ba ce 3c
       0.028444197 -0.102519475 0.14424543 0.025235327
000320 fc 47 3c be 32 b4 f4 3d af 00 61 3e cb e6 f8 36
       -0.18386835 0.11948432 0.21972917 7.417844e-06
000330 c8 31 15 3d e0 a2 26 3d 27 cb c4 bc f7 c0 71 3e
       0.03642443 0.040682673 -0.024022652 0.23608766
000340 47 62 fa bd 6a 59 88 3c 3a 5a a7 3d 42 66 af bd
       -0.12225776 0.016644198 0.08171506 -0.08564426
000350 a2 d2 47 3e 68 c5 44 be 28 6f 3d bd e8 59 d8 bd
       0.19513944 -0.1921593 -0.046248585 -0.10564023
000360 b7 eb 46 be d7 66 b2 3d b6 c8 cc 3d a2 ad 24 3d
       -0.19425856 0.087110214 0.0999922 0.04020465
000370 0d 86 17 bd f1 36 8c 3d 7a 72 2e bd a4 d4 7f 3e
       -0.036993075 0.06846417 -0.042589642 0.2498346
000380 2c 65 aa 3d 36 28 fb bd 9e dd 2d be 04 77 ec bd
       0.08320078 -0.12263529 -0.16979071 -0.11546138
000390 b6 7b ad 3c 45 a8 90 bd 75 92 ff 3d 04 f5 f4 bc
       0.021177154 -0.07063345 0.12479106 -0.029901989
0003a0 89 fb d6 3c 7f 7e 89 3d 67 9a d7 bc 00 98 fb 3b
       0.026242988 0.0671358 -0.026318742 0.007678032
0003b0 b7 70 d6 3d f4 e0 ae 3d a1 cf 46 3d 01 47 bb bc
       0.104707174 0.08539 0.048537854 -0.022861006
0003c0 b4 55 00 3d 17 47 7f 3c 4c 36 a0 bc 51 28 d6 3d
       0.031331733 0.015580914 -0.01955714 0.104569085
0003d0 e6 51 3d be 88 0e 36 be cd 0a e8 bd 8d d9 f2 3c
       -0.18488273 -0.1777898 -0.11330185 0.029644752
0003e0 66 b8 35 3d 4b 70 f4 3d a8 06 07 3d 12 44 8a 3d
       0.04436531 0.11935481 0.032965332 0.06751265
0003f0 9c 00 fa bc 41 6d 24 3e 82 7f ae 3d 9e 5f 2a be
       -0.030517869 0.16057302 0.08520414 -0.16638038

encoder.wave_layers.0.conv_filter.bias f4 [32]
000000 dc 6e c0 bd 41 5e 1b be 5a 03 55 3d 87 a2 46 3e
       -0.09396145 -0.15172674 0.05200515 0.19397937
000010 f2 16 0a be 81 96 7d bd e3 1a f2 3d 88 b9 e0 3d
       -0.13485315 -0.06191111 0.118215345 0.10972887
000020 52 a6 bc bd f3 5b 16 3e 31 5d 80 3d ef 6d 59 bc
       -0.092114106 0.14683513 0.06267775 -0.013270839
000030 5f 0c 1b 3e 51 98 cf 3c ff c0 17 3e e7 27 1d bd
       0.15141438 0.025341185 0.14819716 -0.038368132
000040 eb 01 06 3d eb ae b8 3d b2 78 08 3d ba 04 e0 bd
       0.032716673 0.09017738 0.03331823 -0.109384015
000050 f4 8d bb bd 06 67 2d bd 2b b6 42 be 61 95 2f be
       -0.09157935 -0.04233458 -0.19014804 -0.17146827
000060 05 0b ce 3d 56 ca 63 bd 84 54 cb 3d c8 d1 f0 bb
       0.100606956 -0.055612884 0.099282295 -0.0073492266
000070 a0 3d c1 3d 69 e4 35 be 8e b0 a9 bd 93 93 75 bc
       0.09435582 -0.17762913 -0.08285628 -0.014988798

encoder.wave_layers.0.conv_gate.weight f4 [32, 32, 1]
000000 fa a0 5f 3e 5c fe 22 3e 89 72 25 be 30 c9 84 bd
       0.21838751 0.15917343 -0.16156973 -0.06483686
000010 ec 31 c6 3d da a2 86 be d3 8d 97 3d f9 59 1e bd
       0.096774906 -0.2629612 0.07400098 -0.038660023
000020 c3 b2 35 3e bf 5f d4 3d 53 ff 69 3e 01 06 aa 3d
       0.17743973 0.103698246 0.22851305 0.083019264
000030 fe 8f 6f 3d 95 f2 ba bc 71 2a 1b be 2c fd cf 3d
       0.05848693 -0.02282075 -0.15152909 0.101557106
000040 16 c3 45 bd 32 53 31 3d a4 b7 51 3e 26 fc 76 be
       -0.04828175 0.04329223 0.2048021 -0.24119624
000050 76 dd 7c 3e 96 34 4e be 59 eb c2 bd 0d 71 dc bd
       0.24693856 -0.20137247 -0.09517545 -0.1076375
000060 4b 6f 6e bd 98 e6 3c be 20 e4 4b 3d a3 ec b2 bd
       -0.058211606 -0.1844734 0.049778104 -0.08736541
000070 bc 3c 0d 3e 74 fe 54 be 22 ff 89 bb 37 ce 96 3e
       0.137927 -0.20800191 -0.0042113224 0.29454204
000080 29 0e 6a bd 5d 53 75 3e 9a ac 50 be 4a f5 dc bc
       -0.05714241 0.23957582 -0.20378342 -0.026972432
000090 5c cd 3c 3e 76 87 05 be c4 f3 84 3e 88 2f 14 3e
       0.18437713 -0.13039955 0.25967228 0.14471257
0000a0 d8 90 bd bd 9f 47 12 bd fa 97 2e be d6 46 0e 3e
       -0.092561424 -0.035712834 -0.17050162 0.1389421
0000b0 53 e4 a1 3d 6f f1 e6 bd a7 29 40 be 7b 06 39 3d
       0.079048775 -0.112765186 -0.18765889 0.045172196
0000c0 e3 7f b1 bc 35 52 55 3e 8a 72 37 3e f7 05 c8 bd
       -0.021667426 0.2083214 0.17914787 -0.09766763
0000d0 66 c9 1b 3e 09 85 31 be 71 b7 7b 3c ea b8 52 bc
       0.15213546 -0.17335905 0.01536356 -0.01286147
0000e0 08 62 ab bd f0 27 09 3d 04 3c c4 3d 1b f0 77 bd
       -0.08368307 0.033485353 0.095817596 -0.060531717
0000f0 bd 0b e8 3b b6 f0 90 be 0e 7e 44 3c 1c f3 60 3e
       0.0070814774 -0.28308648 0.011992944 0.21967739
000100 1e 9d 35 3c a0 8f 0a bd 07 94 15 bd bb 48 94 bd
       0.011084823 -0.033828378 -0.036518123 -0.07240435
000110 78 e5 d8 3d ff 2a d3 bd 79 b9 0c be 65 15 b2 bd
       0.10590643 -0.10310935 -0.13742627 -0.08695487
000120 f0 60 d2 bd 76 47 1d bd 23 47 ef bd 41 31 2a 3e
       -0.102723956 -0.03839823 -0.1168349 0.16620351
000130 ec 08 15 bc 02 7e 43 bd cd 5d 82 bd 05 79 4e 3e
       -0.009096365 -0.047727592 -0.06365547 0.20163353
000140 8a 60 21 bd de 60 51 be 55 98 be 3b 9e 72 f3 3b
       -0.039398707 -0.20447108 0.0058164992 0.007429435
000150 c5 19 2a 3e 05 f3 9d 3c d4 a7 1a be 09 f2 cc bd
       0.16611393 0.01928092 -0.15103084 -0.10007102
000160 25 aa da 3d 78 48 2d bc df bc f2 bd f0 7f 41 3e
       0.10676984 -0.01057636 -0.118524306 0.1889646
000170 6b 91 00 be c6 0a 79 bd f3 4f 9a 3d e6 b9 b2 3c
       -0.12555473 -0.06080129 0.0753478 0.021817159
000180 4a 2c 21 be e0 77 43 3d ec c8 88 bc 86 52 05 3d
       -0.15739551 0.047721744 -0.01669737 0.032549404
000190 50 1b ab bc 07 cb ba 3d a7 96 27 3d 4d 22 3c 3d
       -0.020887047 0.09120756 0.040915158 0.04593115
0001a0 6d 19 56 3d 7b bd bb bc 26 78 3d be 65 13 8e 3d
       0.05227034 -0.0229175 -0.18502864 0.06937293
0001b0 fd 7c 75 bd 8e a7 e5 3d 69 39 e0 3d ca 28 4f be
       -0.05993365 0.11213599 0.1094845 -0.20230404
0001c0 98 d0 89 bc 66 63 37 3e 3d 43 58 be a6 31 3c 3e
       -0.016823098 0.17909011 -0.211194 0.18378314
0001d0 75 ff 19 3d bb 0b 14 bb 80 f8 06 be 70 6e 01 3e
       0.03759714 -0.002259 -0.13180733 0.12639785
0001e0 55 91 23 be 2e 78 2c 3e 70 6e 01 3e f1 c5 c9 3d
       -0.15973409 0.1684272 0.12639785 0.098522075
0001f0 5a ba 41 3e ec 44 38 bd 3b 55 8e bd a8 ea a1 bd
       0.18918744 -0.044987604 -0.0694985 -0.07906085
000200 9f ab 91 3d cf a3 1d 3e d8 80 eb bd bb 0e e1 3c
       0.07112812 0.1539452 -0.11499184 0.027472844
000210 5a 26 39 bd 98 8a a5 bc 2d d1 01 be c1 05 d4 bd
       -0.04520259 -0.020207688 -0.1267745 -0.1035266
000220 47 0e 2a be d5 b6 e1 3d 72 4c b9 3c 72 74 bb bd
       -0.16607009 0.110212006 0.02261946 -0.091530696
000230 50 20 2e be c9 17 5f 3e c5 a7 e7 bd 77 5d 55 be
       -0.17004514 0.21786417 -0.113112964 -0.20836435
000240 5e 14 61 3e bc f4 cb 3c 5e 1c 63 be 1e 9c 48 3d
       0.21980426 0.024896972 -0.2217879 0.04897701
000250 bf 02 3d be 13 46 58 bd f0 31 ee 3d 42 de 36 3e
       -0.18458079 -0.052801203 0.116306186 0.17858222
000260 80 58 32 3e 53 26 0f 3e 43 45 9b 3d 8d bc 0f 3c
       0.17416573 0.13979463 0.0758157 0.008772981
000270 2a f5 18 be 2d 57 e7 3c 2f 68 21 3d a9 cf 43 be
       -0.14937273 0.02823981 0.039405998 -0.19122185
000280 e6 04 3e 3e 9d 21 ff 3d 6e 2a b1 3d e1 83 26 be
       0.18556556 0.12457583 0.08650671 -0.16261245
000290 3b 14 9c bd d1 5b 6c 3d 4e 08 12 3d e8 46 b6 bd
       -0.07621046 0.05770475 0.03565245 -0.08900243
0002a0 59 b9 1c 3e 8f 5c 62 be 66 81 4d 3e f7 9e 94 bc
       0.1530508 -0.22105621 0.20068893 -0.018142207
0002b0 06 c4 29 3e 7c 13 27 be 8f 61 03 3d ef 73 17 be
       0.16578683 -0.16316026 0.03207546 -0.14790319
0002c0 4d b3 24 be 1b 66 0a be 4c bc d3 bc 1d bf c2 3d
       -0.16084023 -0.13515513 -0.025846623 0.09509108
0002d0 d0 c5 2d 3d 4c 91 e3 3d 62 e0 dc 3d 66 a8 6a 3d
       0.042424977 0.111116976 0.10784985 0.057289504
0002e0 8a 0f 98 3d 61 c2 03 be b5 97 15 be df 28 06 3e
       0.07424839 -0.12867118 -0.14608653 0.13101529
0002f0 89 d5 20 3e 8c bf 12 3e d5 d4 1f be bf 72 25 be
       0.15706457 0.14330882 -0.15608533 -0.16157053
000300 24 c7 8d 3c 8d 17 6c bd 9a 6f 44 3d da 25 07 3b
       0.017306872 -0.057639647 0.047957994 0.0020621927
000310 dd b6 04 3e bc 5d 9d 3d 13 9a f5 bd 67 03 19 be
       0.12960382 0.07683894 -0.11992278 -0.14942704
000320 08 61 1f 3e 5b 44 5a bc c0 fb c9 3b 93 c4 34 3d
       0.15564358 -0.013321961 0.006164044 0.04413278
000330 5e 80 1f bd b7 6c 9f bc 2f f8 ae 3d 63 9b 84 bd
       -0.03894078 -0.019461019 0.08543431 -0.0647495
000340 6b 07 da 3d ae 35 cb 3c 88 77 23 be b3 6e 25 be
       0.10645946 0.02480587 -0.15963566 -0.1615551
000350 5a 8c 31 3e ea 1e ba 3d 9c e7 e5 bd ad 88 3d be
       0.17338696 0.09087928 -0.112258166 -0.18509169
000360 91 0e 06 3d a0 56 3a 3d 96 52 45 3d 83 8d 7e bd
       0.032728735 0.04549277 0.048174463 -0.062146675
000370 e9 29 3b 3e f1 d2 06 be 4b d1 c9 3d 23 09 20 be
       0.18277706 -0.13166405 0.098543726 -0.15628485
000380 71 e5 3d 3e 38 eb 34 bd cb 48 a2 3d 97 3d a6 bc
       0.18544556 -0.044169635 0.079240404 -0.02029304
000390 92 3a 2e be 62 ae 41 3e 56 a4 28 be 45 b1 78 bd
       -0.1701453 0.18914178 -0.16468939 -0.060715932
0003a0 de a4 db bd ec c4 9d bc c1 2a 5a 3e 25 83 b1 3c
       -0.10724805 -0.019258939 0.21305372 0.02166898
0003b0 8f d1 24 3e 71 32 59 be f4 52 24 bc 98 12 a0 3d
       0.16095565 -0.21210648 -0.010029543 0.078160465
0003c0 d1 b1 49 bc 81 62 8f bd 55 60 8b 3b 17 96 8a 3d
       -0.012310461 -0.0700121 0.004253427 0.067669086
0003d0 36 c4 dd 3d 1e 03 e3 3d eb a0 79 be 09 d2 ed bc
       0.1082844 0.11084579 -0.24377792 -0.029030817
0003e0 0c 3e ca bd 11 73 85 3d 60 ba 19 be 4c 56 85 3e
       -0.09875116 0.06516088 -0.15012503 0.26042402
0003f0 2d 3d 07 3d fd 09 a4 3d 74 3d 37 3d 3a 5c 27 be
       0.033017326 0.080097176 0.04473634 -0.16343775

encoder.wave_layers.0.conv_gate.bias f4 [32]
000000 72 6a 5c bd ae 78 80 3c a0 e7 f6 bc d6 cd d4 3d
       -0.05381245 0.015682545 -0.030139744 0.103908226
000010 0d 90 8f 3e cc 5d 1c 3e 56 d9 34 3e 09 42 e7 bd
       0.2803959 0.15270156 0.17661032 -0.11291892
000020 7b bd 1b 3e 58 18 0b be ad a1 bd 3d cf e5 c9 3c
       0.15209 -0.13583505 0.09259353 0.024645714
000030 da 4e 9b 3e 3b 7c 6c 3e 51 cf 35 3d 0a d5 21 3c
       0.30333596 0.23094265 0.044387165 0.009877453
000040 e8 f6 da bd bd fb 26 bd 5e 64 6f 3d 0c 17 dc bd
       -0.10691625 -0.04076742 0.058445327 -0.10746583
000050 1d b9 8f bd 94 c9 10 be 68 d6 da 3d d1 7a e2 bc
       -0.070177294 -0.14139396 0.10685426 -0.027646454
000060 8f 34 7d bc 12 6c 37 3e 5f b8 c6 3c 9c 2f 05 be
       -0.0154544255 0.1791232 0.024257837 -0.13006443
000070 48 5c 64 3c 82 f5 3a bd 57 79 85 be e9 1b 28 39
       0.013938017 -0.04564429 -0.26069137 0.00016032126

encoder.wave_layers.0.conv_skip.weight f4 [32, 32, 1]
000000 a1 05 26 be 85 49 e9 bd 70 e0 12 be 90 60 0a be
       -0.16213085 -0.11390976 -0.14343429 -0.13513398
000010 10 43 46 bc a3 0d 34 3d ca 59 34 3e 92 9a 8f 3d
       -0.01210095 0.043958317 0.17612377 0.07011904
000020 b6 37 c7 3d aa 48 1b 3e 58 cc 04 3e ba b7 91 bc
       0.09727423 0.15164438 0.12968576 -0.017787803
000030 e8 8c 2d be 52 b4 b1 3d 59 e8 31 3e 4c 80 2d 3e
       -0.16948283 0.086769715 0.1737379 0.16943473
000040 64 0d 26 be 22 ac 29 be 79 98 b0 3d f3 99 4e 3d
       -0.16216046 -0.1656957 0.08622832 0.050439786
000050 7f f1 9c 3d a7 5c 8f bd 5c 67 11 3d 3b cb c9 bd
       0.07663249 -0.07000094 0.03549896 -0.09853216
000060 9f d3 a7 3d 25 70 39 3c 5b 6d 29 3d 5b c8 17 3d
       0.081946604 0.011318241 0.041364055 0.03705631
000070 40 e2 1b 3e a7 ba 53 bc 0a b6 06 be 62 c5 3b 3d
       0.15223026 -0.012922919 -0.1315538 0.045842536
000080 13 59 41 3d 9e 96 22 be 26 57 53 bd 2c fd 1d be
       0.04720409 -0.15877768 -0.051596783 -0.15428609
000090 09 73 9a 3d 27 ee 2a be ac b3 f8 bc 09 fc 3a bc
       0.075414725 -0.1669241 -0.030359112 -0.011412629
0000a0 39 93 21 3e 6d 27 e2 3d 6e cc ec bd 37 03 c4 bc
       0.15778817 0.11042676 -0.11562429 -0.023927314
0000b0 c9 e4 ac 3d 51 10 94 bd 8b 06 95 bd 9c 3f 71 3d
       0.08442075 -0.072296746 -0.072766386 0.058898553
0000c0 16 0f fe bd 52 52 7b 3d a7 76 eb bd b8 0e 0f be
       -0.12405221 0.061357804 -0.114972405 -0.13970459
0000d0 d4 63 c1 bd d2 ea 8a 3d 16 07 5c bd 8c 18 57 3d
       -0.09442869 0.0678307 -0.053717695 0.052513644
0000e0 94 76 b2 bd 12 8d e9 bd 95 2c 2c 3e f0 79 f7 3a
       -0.08714023 -0.1140386 0.16813882 0.0018880945
0000f0 7d 81 9a bd 6d 58 9d 3c f3 dc 97 3c 55 2e 25 3d
       -0.07544229 0.019207204 0.018537974 0.04032739
000100 76 6c 9e 3c 26 d3 22 3d cf 26 a7 bd 4c 34 32 bd
       0.019338828 0.039752148 -0.08161699 -0.043506905
000110 a3 24 07 bd 7e 5f 8f 3d dd 87 b3 bd c2 7e d5 bb
       -0.032993924 0.070006356 -0.08766148 -0.006515355
000120 91 7e 75 bd 95 31 2f 3e ec 18 18 3d 2f 22 09 be
       -0.059935156 0.17108758 0.037133142 -0.13391946
000130 a0 34 14 be 36 76 1d bd 57 94 18 3e 34 55 c0 bd
       -0.144732 -0.038442813 0.14900337 -0.09391251
000140 0c e6 12 3e 6a c7 91 3d f4 2e c2 bd cc 89 f2 3d
       0.14345568 0.07118113 -0.09481612 0.11842689
000150 a6 01 26 3c f8 02 03 be 9a 37 23 be b2 13 85 3a
       0.010132229 -0.12794101 -0.15939179 0.0010152964
000160 86 d0 2c be 42 14 c7 bd 31 20 21 bc 83 f1 bf 3d
       -0.1687642 -0.09720661 -0.009834335 0.093722366
000170 61 15 e1 3d 00 88 07 be a5 4d d1 3d a4 47 88 3d
       0.10990406 -0.13235474 0.10219888 0.06654289
000180 cd 48 54 3d 4e 1f 84 bc 72 bb 25 3e a4 6f 40 bd
       0.05182724 -0.016128208 0.16184786 -0.04698147
000190 4a 08 86 3d 2a c1 fe 3a 6d 01 00 3d 2e d3 be 3d
       0.0654455 0.001943623 0.03125136 0.09317623
0001a0 07 13 e1 3d a4 58 b1 3d fc 53 1b be eb e5 c6 3c
       0.10989957 0.08659485 -0.15168756 0.024279555
0001b0 81 76 03 be aa fe 14 bc 93 2a a1 bc 0e b2 cd bd
       -0.12838174 -0.00909392 -0.019673621 -0.10043727
0001c0 ad b9 31 3e 9b 93 98 bd f0 47 a2 bd fd b6 10 3e
       0.17355986 -0.074500285 -0.07923877 0.14132304
0001d0 7d 72 3d bd 92 2d f9 3d d0 0e e8 3d 70 7c 05 bc
       -0.046251763 0.12166895 0.1133095 -0.008147344
0001e0 bb b1 9f bb 88 87 ec 3d c0 c2 87 bd 54 2c 3d 3d
       -0.004873482 0.11549288 -0.066289425 0.046184853
0001f0 73 e0 6a bd 31 3c 25 3e 29 73 fe 3d d4 4e 07 3e
       -0.057342958 0.16136242 0.12424309 0.13213664
000200 f4 b3 a5 bc 13 ce 13 3e d9 ed 8e bd e1 cb 4c 3d
       -0.02022741 0.1443408 -0.069789596 0.04999912
000210 60 9d 5f 3d 64 57 1c bd dc 27 79 3a 16 53 e9 3d
       0.054593444 -0.03816928 0.00095045357 0.113928005
000220 dd ea ae 3c 09 dc d4 3c b5 b8 14 3d c3 8b 31 3d
       0.021352226 0.025983827 0.036308963 0.043346178
000230 43 0a 03 3e 1c e8 7c 3a 1e 2c aa bd 7e 24 05 be
       0.12796883 0.0009647624 -0.08309196 -0.13002202
000240 41 a4 49 bd 30 83 1c bd 44 6e 6b 3d e8 cc 87 3c
       -0.04922891 -0.038211048 0.057478204 0.0165772
000250 e9 62 cb bd 29 05 16 be 97 20 10 3e f9 64 6e 3b
       -0.09930975 -0.14650406 0.14074932 0.0036376102
000260 34 0a 71 bd 20 76 a7 bd cd e2 28 3e d4 a3 28 bd
       -0.05884762 -0.081768274 0.16492768 -0.041171864
000270 b4 8e c6 3d e4 e2 70 bd ff ac c2 bd a3 de 1b be
       0.09695187 -0.05881013 -0.09505653 -0.15221648
000280 dd 34 05 3e a3 57 a8 3c 97 5a 5c 3d 15 a4 b5 bd
       0.13008447 0.020549601 0.05379733 -0.08869187
000290 0b 87 ea bd d9 84 bd bd e4 65 2c bd 1f 20 2a ba
       -0.11451539 -0.09253854 -0.042089358 -0.0006489772
0002a0 e3 fa f9 3c 2c 90 1a bd 4e 3b 90 3d db 4c d6 3d
       0.03051514 -0.03773515 0.070425615 0.10463878
0002b0 62 d7 1e 3e 99 3d d2 bd fc 25 63 3c a6 99 2d 3e
       0.1551185 -0.10265655 0.013864037 0.16953143
0002c0 2e 4a f2 bd 5b e4 1b bd a7 12 2b 3e a6 7f 2f 3e
       -0.11830555 -0.038059574 0.16706334 0.17138538
0002d0 a8 2b d4 3c 44 bd 2c 3e b5 b8 7d bc 1b 83 2c be
       0.025899723 0.16869074 -0.015485932 -0.16846888
0002e0 cc 15 f4 bd c8 76 2f 3c fb ce ee 3d 04 be 1b 3e
       -0.1191822 0.010709472 0.11660572 0.15209204
0002f0 df fb 9e 3d a3 32 d4 3d 95 f5 e8 bd 63 d2 21 3e
       0.07762884 0.10361221 -0.11374966 0.15802912
000300 ce 5f 69 3d 7f cf 4d 3d 19 e7 51 bd 42 eb ae bc
       0.056976132 0.05024671 -0.051245783 -0.021352414
000310 f1 57 5c bd 42 31 5e bc dd e8 07 be f3 31 59 3d
       -0.053794805 -0.013561549 -0.13272424 0.05302615
000320 11 5f 86 3c e5 2a 8a bd 17 31 22 3e ef 3e 95 bd
       0.016402753 -0.06746463 0.15839039 -0.07287394
000330 86 45 a3 3d 6f 28 4f 3d bb 64 dd 3a 12 e1 80 3c
       0.07972245 0.05057567 0.0016890982 0.015732322
000340 8b 2c be bd a9 12 59 bd 7d a5 0a 3e 52 1d 2b be
       -0.0928584 -0.05299631 0.13539691 -0.16710404
000350 9d 84 c4 3d ac 30 01 be 92 c4 13 be 5d f8 31 3e
       0.095956065 -0.12616223 -0.14430454 0.173799
000360 16 ae 0a 3e 5b 36 2d 3d 37 bd 85 3d dc a0 71 3d
       0.13542971 0.042288166 0.065302305 0.058991298
000370 32 fc f8 bd 1a 1a eb 3b 9f 6c 14 3e 55 48 83 3d
       -0.121574774 0.0071747424 0.1449456 0.064102806
000380 79 58 4f 3d 7d 62 1a be 82 cb 06 be 15 4e 50 bd
       0.050621483 -0.15076633 -0.1316357 -0.050855715
000390 3b 1c 17 3e 75 b9 00 be 07 99 8a bd b7 71 b0 bd
       0.14756863 -0.12570746 -0.06767469 -0.086154394
0003a0 ee 3c 27 3d 73 e0 1e 3e 30 b1 11 3e 67 18 d5 bc
       0.04082959 0.15515308 0.14227748 -0.026012613
0003b0 30 e6 bb 3d cf df ee 3d a8 b0 04 bd 8b 8e 21 3d
       0.09174764 0.11663782 -0.032395035 0.03944258
0003c0 34 51 87 3d 65 db d4 bd 73 cd a2 3c fe 15 0d 3e
       0.06607285 -0.10393409 0.019873356 0.1377792
0003d0 aa 1e 8c 3d 00 af e9 bb 08 b5 27 be 86 0d 09 3e
       0.06841786 -0.0071314573 -0.16377652 0.13384065
0003e0 b6 5a 12 be e2 9e 06 bd 2a 18 12 be 8d fd 96 3d
       -0.14292416 -0.032866366 -0.1426703 0.0737258
0003f0 aa 1a 2a 3e a2 4d e0 bd 69 61 e4 3d 55 d0 0f 3d
       0.16611734 -0.10952307 0.11151392 0.03511079

encoder.wave_layers.0.conv_skip.bias f4 [32]
000000 4c 5e 2f 3e 9b 2c d0 bc 6d 42 99 3d bd 05 2d be
       0.17125815 -0.025411895 0.07483373 -0.1689672
000010 8e 3a 20 bc 66 bb 36 bd e6 36 df bd 0a 07 26 3e
       -0.0097795855 -0.04461231 -0.10899143 0.16213623
000020 11 ea bb 3d 1e 7e a9 3d 70 ff b4 bd 05 b3 61 bc
       0.09175504 0.08276008 -0.08837783 -0.013775592
000030 b0 77 20 be 0e 5c 0b bd 10 9f 10 3e ff 44 33 bd
       -0.15670657 -0.034023337 0.14123178 -0.04376697
000040 ee 3c 9c bd 29 50 8c bd 4d d6 1c be a0 c0 b0 3d
       -0.07628809 -0.06851227 -0.15316124 0.0863049
000050 e4 21 06 3e d3 38 95 bd f4 dd 91 bb 20 4f 29 be
       0.13098866 -0.07286229 -0.0044515077 -0.1653409
000060 a1 c2 0c 3e d4 55 1d 3e 27 4c 34 be 98 7c 5d 3d
       0.1374612 0.15364772 -0.17607175 0.0540739
000070 43 1e 27 be 29 c9 1b 3e 7a bc 08 3e b9 b9 3e ba
       -0.16320138 0.15213455 0.13353148 -0.00072755996

encoder.wave_layers.0.conv_residual.weight f4 [32, 32, 1]
000000 55 62 aa bd 65 0b c2 3d 1d 35 2d be fa 2e 08 3e
       -0.083195366 0.094748296 -0.16914792 0.1329917
000010 d3 24 49 3b c5 59 15 3e 4e bc f3 bd 55 84 2f 3d
       0.0030692115 0.14585026 -0.11901151 0.04285081
000020 7c f7 0c bd c7 34 02 3e 5a 95 0d be 40 2d 9e 3d
       -0.034415707 0.12715445 -0.13826504 0.077234745
000030 86 2b de 3c 32 ec 8f 3d 6b a5 d3 bd 1b f4 80 3d
       0.027120363 0.070274726 -0.10334285 0.062965594
000040 60 54 28 be a3 0f f2 3c 1c 90 d4 3d cb 55 56 bd
       -0.16438437 0.029548472 0.10379049 -0.052327912
000050 01 39 c2 3d c1 53 19 3c b6 eb eb 3d f7 5b 18 be
       0.09483529 0.009358347 0.11519568 -0.14878832
000060 09 06 3f 3d 49 b5 ab bd b2 e3 c5 3d ee 83 0a bc
       0.046636615 -0.08384187 0.0966257 -0.008454306
000070 28 ab 63 3d 6c 69 9d bd 87 32 99 3c fd 2c e9 bd
       0.05558315 -0.07686123 0.018700851 -0.11385534
000080 9d 95 51 3d 4a 62 da bc 69 ac 16 be d4 c1 5a 3d
       0.051168073 -0.026658196 -0.14714207 0.053407505
000090 3c 2a a5 bc fd fe 34 3e 6c 90 4e 3e 17 64 2e be
       -0.02016174 0.17675395 0.2017228 -0.17030369
0000a0 8e a9 cf bb 01 c7 71 3c 20 4d d4 bc 9d 4e 4c 3c
       -0.006337351 0.014756919 -0.025915682 0.012469915
0000b0 da e7 5a bd a7 d3 c1 bd 16 83 06 3a 29 62 11 be
       -0.053443767 -0.094641976 0.00051312277 -0.14197601
0000c0 1d 34 b6 3d 8e fa 1b 3e e5 54 dc bc 4b 93 3b 3e
       0.088966586 0.15232298 -0.02689595 0.18317907
0000d0 2f ff 0e be 1c ae 47 bd 64 75 35 bd ef 7d b8 bd
       -0.13964532 -0.048750028 -0.044301406 -0.09008395
0000e0 c5 ff 78 bc 89 12 32 be 60 2d a8 3d 10 84 f0 3d
       -0.015197699 -0.17389883 0.082117796 0.11743939
0000f0 66 d5 2d bd 5b f8 81 3c ea 68 93 bc 66 4c 27 3b
       -0.04243984 0.015865495 -0.017994363 0.0025527715
000100 c2 be 46 be 38 cc e0 bd ca a5 c6 3d 5f 78 77 3e
       -0.19408706 -0.10976452 0.096995905 0.24167012
000110 ad 8c 5c 3d a2 6f 03 be 8c 47 4f bc 85 59 e7 3c
       0.053845096 -0.12835553 -0.012651335 0.028240928
000120 b2 3b 82 3d 0a e5 14 3e ae 79 6f bd 67 0c 11 3e
       0.06359042 0.14540496 -0.058465652 0.14164887
000130 9d 02 07 3e 87 19 38 bd 9c b0 48 3d 08 f4 1b ba
       0.1318459 -0.04494622 0.048996553 -0.0005949144
000140 61 99 dd bd 69 a6 e2 3a a5 b1 f4 bd b7 7e 65 3e
       -0.1082027 0.0017292026 -0.119479455 0.22411619
000150 c3 96 21 be 6b 3e 4b 3d 58 05 22 3e f2 d4 33 3d
       -0.15780167 0.049620073 0.15822351 0.043904252
000160 23 f0 99 3b c7 19 0f be 8d 41 14 3e 91 dc 2c bc
       0.004697816 -0.13974677 0.1447813 -0.010550634
000170 45 5e 54 bd c5 ae 6a 3c 5d 4c 45 3e 55 10 a9 3d
       -0.051847715 0.014323895 0.19267412 0.08255068
000180 f5 7c 99 bd e0 ba 08 be 3e 7e 1b 3e 7d 68 cd 3d
       -0.07494537 -0.13352537 0.15184876 0.10029695
000190 8c 4f bd bd 78 fe 3e 3e ff ad 04 3e 36 e8 93 bc
       -0.09243688 0.1865176 0.12956999 -0.018055063
0001a0 a1 98 03 bd 16 65 1d be d6 ce 3c 3b 00 53 d5 3d
       -0.03212798 -0.15370592 0.0028809807 0.104162216
0001b0 c4 c8 d7 bd bb f1 0c be 58 de 1f be 15 07 d7 bd
       -0.1053634 -0.13764088 -0.15612161 -0.10499398
0001c0 2e 2f 33 be 32 3d b1 3d d2 e2 eb 3c 58 d8 74 3d
       -0.17498466 0.0865425 0.02879468 0.059776634
0001d0 5e 6a 4b 3d 7c e2 05 3c 78 a3 a2 3d cd a6 e8 3c
       0.049661987 0.008171674 0.079413354 0.02839985
0001e0 ee 8c a2 bd 3c 17 a3 3d a2 65 08 3e d8 96 4c 3c
       -0.079370365 0.07963416 0.1332002 0.012487136
0001f0 70 2b c5 3c ec cf 2a 3c 2a bf 1a bd cd 75 f3 bc
       0.024068564 0.010425549 -0.037779965 -0.029719258
000200 be 2a 2e be bd 1f d9 bd f1 7d fa 3c 5d 55 39 be
       -0.17008492 -0.10601757 0.030577632 -0.1809897
000210 fc e7 92 bd c6 41 0d be fe e5 9e bd 2f 99 e4 bc
       -0.07173154 -0.13794622 -0.07758711 -0.027905075
000220 f3 2c 49 3e 2d 14 5c bd a8 94 f4 bc 50 ac 2b 3d
       0.19646053 -0.05373018 -0.029856041 0.041912377
000230 17 db a1 bd fd db a4 bd 4d bc 4c be 67 47 11 be
       -0.07903116 -0.08049772 -0.19993706 -0.14187394
000240 41 14 e9 3d ac 36 44 3e 78 fd 2c 3e dc a3 c9 3d
       0.11380816 0.1916148 0.16893566 0.09845707
000250 b8 90 7f 3d 08 bb 53 be 28 41 19 3d b1 7a 40 be
       0.062393874 -0.20676816 0.037415653 -0.18796803
000260 3f 33 86 bd 49 7f 91 bd 76 ab e4 3c 1d e6 9e bd
       -0.06552743 -0.07104356 0.02791379 -0.077587344
000270 6c 5d c0 bd 1c 44 2a be eb 88 94 3d 48 4c a2 3d
       -0.09392819 -0.16627544 0.072526775 0.07924706
000280 71 f1 30 3e 32 42 1d be d8 28 27 be 8f ca 37 bc
       0.17279603 -0.15357283 -0.16324174 -0.011217727
000290 f9 16 73 be aa 01 2a 3e c6 dd 14 be 8d 46 5d 3e
       -0.23739232 0.16602197 -0.14537725 0.21608944
0002a0 39 ff 0c be 63 9f 88 3d 17 2a 3b 3e a8 ec e4 3c
       -0.13769235 0.066710256 0.18277775 0.027944878
0002b0 7f a3 31 3e 0a 93 4c be e5 12 a7 bd 4c 77 1d 3e
       0.17347525 -0.19977966 -0.08157901 0.1537754
0002c0 0e 51 6a be f6 93 c9 bd 5e 5f f4 3d 52 e1 0a 3d
       -0.22882482 -0.098426744 0.11932252 0.03390629
0002d0 ea e8 9f 3c 3e e9 44 3e d1 9f ab bd 78 a8 4c 3e
       0.019520242 0.192296 -0.08380092 0.1998614
0002e0 3c cc a3 3d 91 8c bb 3d 90 72 ff 3b ee 34 f8 3d
       0.07997939 0.0915767 0.0077956393 0.121194705
0002f0 fb 41 eb 3c 5a 48 4d 3d aa a0 22 3e eb 01 e9 3d
       0.028717985 0.050117828 0.15881601 0.11377319
000300 f8 ba 25 3e 11 e9 2d 3a 82 c8 4b be 06 2b aa 3d
       0.16184604 0.0006634156 -0.19900706 0.08308987
000310 53 6b 01 3e 9d 59 59 3d 5a d5 8c 3b 5a 05 1d 3e
       0.12638597 0.053063978 0.0042978944 0.15334073
000320 ef 74 41 bd 67 b6 e0 bd c9 cc ab bc 7c 0f c1 bd
       -0.047230657 -0.109722905 -0.020971673 -0.094267815
000330 4d 66 19 be 44 23 42 3e a9 c6 21 3e 59 55 a4 bc
       -0.14980431 0.18958765 0.15798439 -0.020060228
000340 0e 19 1a be 52 da 3b be 21 f7 d7 bd ec 30 6b bd
       -0.1504862 -0.18345001 -0.10545183 -0.057419702
000350 b0 28 4d 3d fb b9 c9 3d 41 45 41 bd c4 30 de 3d
       0.05008763 0.09849926 -0.047185186 0.10849145
000360 a4 5c b9 bd cf e2 7c 3d 32 4e 9c 39 9e c6 d9 bd
       -0.09050873 0.06173974 0.000298129 -0.10633586
000370 5f 49 8d bd ba 41 37 3e 7d bd 27 bd 52 4d 1e 3e
       -0.0689876 0.17896166 -0.040952194 0.15459183
000380 92 ee b0 3d f7 49 80 3e 0f dd 21 3e c9 92 4b be
       0.08639254 0.2505643 0.15806983 -0.19880213
000390 54 34 b9 3d a5 72 5c bd c2 fe 73 3e f1 ec 9f 3d
       0.09043184 -0.05382027 0.23827651 0.07808865
0003a0 5e 7c 82 3c 65 3d c4 bd a3 89 fe bc 12 f7 51 bd
       0.015928444 -0.095820226 -0.03107149 -0.051261015
0003b0 23 cd e2 bd 5c 55 e0 bc 52 8b 28 3d ea ad 45 bd
       -0.11074283 -0.027384453 0.04114849 -0.04826156
0003c0 3a c4 27 3d ff 46 f1 bd bd 36 7d 3d f0 eb a9 bd
       0.04095862 -0.117811196 0.06181978 -0.08296955
0003d0 50 a2 16 3e 4f 06 c2 3d d2 8a 1f 3e 97 8f 02 be
       0.14710355 0.094738595 0.155803 -0.12750088
0003e0 6b 00 b3 3d ba 0d 96 bd 9b ea 2a be ea aa 8f 3c
       0.08740314 -0.07326837 -0.16691057 0.017537553
0003f0 74 9f 47 bc a5 8a 30 3e 0a 70 80 be 0c b9 11 be
       -0.012184013 0.17240389 -0.2508548 -0.14230746

encoder.wave_layers.0.conv_residual.bias f4 [32]
000000 c6 e2 e8 3c f4 54 21 3e 95 dd 5a bc cd a7 a2 bd
       0.028428447 0.15755063 -0.013358493 -0.07942162
000010 0a ea e7 3d a1 74 b2 bd a3 6d f5 bd 71 f8 3d bd
       0.11323936 -0.087136514 -0.11983802 -0.04637951
000020 78 ad 1a 3d be c2 ff 3d ae 17 d5 3d 4f 7e f5 bd
       0.03776309 0.12488316 0.10404907 -0.11986982
000030 c4 ae bd bd 17 01 18 bd 63 a4 b3 bd b0 fb 7a bd
       -0.092618495 -0.037110414 -0.08771589 -0.061275184
000040 f9 88 ff 3d 08 4d 0b 3e ed dd ef 3d 22 df 1b 3e
       0.12477297 0.13603604 0.11712251 0.15221837
000050 60 2c ea 3d 05 55 36 bd c7 1a 31 be 58 c5 ad bd
       0.11434245 -0.044514675 -0.17295371 -0.08484906
000060 8a 35 34 be 7e 3b 84 bd 2e 7a b7 3d 50 40 49 3d
       -0.17598549 -0.0645666 0.08958851 0.0491336
000070 9a 1c ac bc 12 fb 40 be e8 eb 84 3d ce c9 99 bd
       -0.021009732 -0.18845776 0.06490308 -0.07509194

encoder.wave_layers.1.conv_dilation.weight f4 [32, 32, 2]
000000 f0 32 2e bd 55 84 af 3d 10 22 b0 3c fd aa 4e bd
       -0.042529047 0.08570162 0.021500617 -0.050456036
000010 73 24 a5 3d 82 b9 00 3e 57 a2 1a 3c ac be 9d 3c
       0.08063593 0.12570766 0.009438119 0.019255958
000020 10 eb 82 bc a6 7d c7 bd 46 ff 87 bd 67 e5 23 3c
       -0.015981227 -0.097407624 -0.066404864 0.010003424
000030 c0 5b e1 3d bd 34 11 bd 7f 8b d6 3c 96 70 7e 3d
       0.11003828 -0.035450686 0.026189564 0.06211909
000040 dc 12 da bc 3a 40 95 bd da 4f 03 be a6 6b 53 bd
       -0.026620321 -0.07287641 -0.1282343 -0.051616333
000050 be c0 0e 3e fe 2e 26 bb 34 e1 b1 bd d1 11 f2 3d
       0.13940713 -0.00253576 -0.08685532 0.118198045
000060 62 df 2e bd b3 70 80 3d 1d 21 76 3d 06 ed 72 3d
       -0.042693503 0.06271496 0.060090173 0.059308074
000070 01 3c 31 bd 19 81 3c 3d 74 54 c7 3d 35 56 99 3d
       -0.043270115 0.046021555 0.09732905 0.07487146
000080 5e a3 91 3d a8 3f b2 bd d8 4a e6 bd ae 26 ae bc
       0.07111238 -0.08703548 -0.11244744 -0.021258678
000090 e0 2c f6 3d 2a a8 00 3e ee 36 53 bc 69 45 d4 3c
       0.12020278 0.1256415 -0.012891514 0.025912004
0000a0 16 98 76 3c 0c df 5f ba 1c 38 18 be 8e dd 02 be
       0.015050909 -0.00085400115 -0.14865154 -0.12779829
0000b0 24 ab d5 bd d3 d2 b5 3d 0f 18 45 bd 84 d7 e5 bd
       -0.10433033 0.08878102 -0.048118647 -0.11222747
0000c0 26 06 33 ba 24 11 8c bd 50 18 7f 3d 63 f3 9d bd
       -0.00068292243 -0.06839207 0.062279046 -0.07712438
0000d0 f8 2f c1 3d 23 cc 69 bd 8b ea ab 3d ce 40 2a 3d
       0.094329774 -0.057079446 0.08394345 0.04156571
0000e0 43 16 4c bc 47 03 92 bd 02 14 23 3d e1 cb af bd
       -0.0124564795 -0.07129531 0.039814003 -0.08583809
0000f0 92 88 21 be 08 0b 65 bd be 0e ad 3d cd 31 99 bd
       -0.15774754 -0.055918723 0.084500775 -0.07480202
000100 66 7d bf bd 8e 3f 04 3c 6f ad 6c 3d 80 09 b6 bd
       -0.0935009 0.008071793 0.057782587 -0.08888531
000110 3e fc a0 3d c6 73 64 bd 90 48 a5 bd f5 28 a4 bd
       0.078606114 -0.055774473 -0.08070481 -0.080156244
000120 68 89 2a 3d a6 5e 5a bd e0 12 4e 3d 6c 29 91 3c
       0.041634947 -0.05331292 0.05031097 0.017719947
000130 a1 8d 9a 3d 00 ad 30 be 90 1a 81 3d 41 bd 88 bd
       0.07546545 -0.17253494 0.063038945 -0.06676722
000140 fe be a3 3d 25 87 52 bd 88 a6 89 3d b5 99 12 3e
       0.07995413 -0.051398415 0.067212164 0.14316447
000150 23 12 37 bd d8 33 dd bd d3 22 c8 3c 25 60 2f bd
       -0.04469503 -0.10800904 0.024430668 -0.0428163
000160 80 74 83 3d f2 7d 6f 3d 4f cc af bc 12 69 45 3d
       0.06418705 0.05846972 -0.021459727 0.048195906
000170 5e 00 01 3d 31 33 92 bb b3 ca 31 3d 5a e0 0a be
       0.03149449 -0.004461669 0.0434062 -0.13562146
000180 d0 56 b8 3d 99 57 74 bd 92 4e 63 3d 4c f7 82 bd
       0.09000933 -0.059653852 0.055494852 -0.063948244
000190 d3 e2 91 3d c9 11 18 be 56 fa 45 3d 1d ba b7 3d
       0.071233414 -0.14850534 0.048334442 0.08971045
0001a0 1c c6 7b 3d 21 1c cc bd 8d 8d 29 bc 45 42 b1 3b
       0.06146823 -0.09966303 -0.01034869 0.0054095113
0001b0 84 9f d2 3d 8f ff 9b bd 0b c9 a3 bd 89 ad e1 3b
       0.102843314 -0.07617103 -0.0799733 0.006887142
0001c0 ce ad db 3c a3 c0 5b 3d 30 31 34 3d 47 68 ad 3d
       0.026816275 0.05365051 0.04399222 0.08467155
0001d0 94 2c 81 3c d8 10 3b 3e b2 db 97 bd 7b 30 dd bd
       0.015768327 0.18268144 -0.074149504 -0.108002625
0001e0 c7 d5 82 3d 89 80 2e 3d 0f 2d 1d 3d 60 54 e1 3d
       0.06388431 0.04260305 0.03837305 0.110024214
0001f0 e4 aa 1b bd 39 8e 7d bd e7 d7 dc 3d ea e9 0c 3d
       -0.03800477 -0.061903212 0.107833676 0.034402765
000200 71 d4 99 bc d2 ea 9a bd ee 3c 4a bd e1 f4 e6 bc
       -0.018778058 -0.0756432 -0.049374513 -0.02819294
000210 0a a6 a2 bd 0c c9 41 3c d3 bb a7 3d 69 a8 ec 3d
       -0.07941826 0.0118277185 0.081901215 0.11555559
000220 03 ba 1f 3a f2 31 cd bd 92 99 73 bd 45 50 9f 3d
       0.00060930866 -0.10019292 -0.059472628 0.07778982
000230 5d 18 19 be 7c 8a d4 3d 56 34 e4 3d c6 45 d6 bd
       -0.149507 0.10377976 0.11142795 -0.10462527
000240 a3 43 9d 3c 11 5d 00 bd c3 ab f8 3c 18 36 d2 3d
       0.01919729 -0.031338755 0.03035534 0.10264224
000250 cb 6c 91 3d 9b 8a c3 bd 92 2b f0 bd d0 58 41 bc
       0.07100829 -0.09547921 -0.117270604 -0.01180096
000260 09 74 c6 bd 7e 1c 85 3d f6 25 b2 bd e9 23 8e bd
       -0.09690101 0.06499575 -0.08698647 -0.06940443
000270 6a 5f ca 3d 70 05 ba 3d 98 32 f4 bd a1 5b db 3c
       0.0988148 0.09083068 -0.119237125 0.02677709
000280 47 89 13 bd 0e 25 fb 3d 73 5a 01 be 9e e9 cf bd
       -0.03601959 0.12262927 -0.1263216 -0.10151981
000290 9c 17 9d 3d a0 6c e5 3d d8 65 86 3d ad 1c c0 bd
       0.07670519 0.11202359 0.06562394 -0.093804695
0002a0 53 2b 6e bd 86 72 6c bd 54 8a c7 3d a0 38 2a 3d
       -0.058146786 -0.057726406 0.09743181 0.041557908
0002b0 d8 96 f9 bc df 24 d9 3d e3 f9 12 3e dc 26 07 be
       -0.030467436 0.10602736 0.14353137 -0.13198417
0002c0 ce da af 3d da d9 07 be 91 83 42 bd ea 7b 8d 3d
       0.085866556 -0.13266698 -0.047488753 0.069084
0002d0 c6 ea 50 bd cf 62 ca 3c 0b fb dc bb 21 e0 f8 bd
       -0.051005147 0.024705319 -0.006743794 -0.12152124
0002e0 03 50 b1 3a b0 4b 20 3d 08 5a 51 3d 70 06 03 be
       0.0013527874 0.03913468 0.05111125 -0.12795424
0002f0 bf fc cb bd 23 ac ce bd ac e2 f2 bb f4 86 af 3d
       -0.09960317 -0.10091426 -0.0074122753 0.08570662
000300 18 cc bc 3d 41 c7 3c 3d 59 a9 64 bd 55 c4 f6 bd
       0.09218615 0.04608846 -0.055825565 -0.12049166
000310 61 2f ce bd 96 1f 48 3d e3 25 1b 3d cb 2c 0e 3d
       -0.100676306 0.048858248 0.03787793 0.034710687
000320 b2 31 0c 3d ab 5d 92 bd 75 eb 16 be a6 cb d8 3c
       0.03422708 -0.07146772 -0.14738257 0.026464295
000330 23 6f dc bc 53 5b 36 be 69 5d f3 bd a1 05 70 bd
       -0.026908463 -0.17808275 -0.11883051 -0.05859912
000340 b5 b7 3e bd 2b aa 42 bc a4 d5 1b 3d df c8 02 3e
       -0.046561915 -0.0118813915 0.03804554 0.12771939
000350 e8 85 d0 3d 33 8a 2a be d4 2b 1f 3c b8 d0 b2 3d
       0.101817906 -0.16654281 0.009715039 0.08731216
000360 68 55 02 3c 1e bb fa bd f8 f2 64 3d 9f f7 0e be
       0.007954933 -0.12242721 0.055895776 -0.13961647
000370 05 0b d2 bd fe fd 0a 3e b9 ac 78 3d b0 4d 82 bd
       -0.10256008 0.13573453 0.060711596 -0.06362474
000380 78 5f 96 3d 05 a2 13 bd 59 df 7f bd c9 15 f0 bd
       0.07342428 -0.036043186 -0.06246886 -0.11722905
000390 a9 34 d4 3d 85 b2 aa bd 90 7e db bd 2f 63 cb 3c
       0.10361607 -0.08334831 -0.10717499 0.024827568
0003a0 07 c7 e4 3d c6 01 8c bd 1f 69 25 be a4 0c 39 3e
       0.11170774 -0.06836276 -0.16153382 0.18071228
0003b0 f1 fb 3e 3d 62 b7 d9 3d e0 94 87 bd d4 b7 16 bc
       0.04662699 0.106306806 -0.066201925 -0.0091991015
0003c0 22 82 c7 3d f8 97 ab 3c 5b 9a 7b bd 36 72 c8 3c
       0.09741618 0.020946488 -0.0614265 0.024468523
0003d0 50 0d 8c 3d 23 8f b6 bc f3 6d 08 3e 7a 46 cf 3d
       0.06838477 -0.02228505 0.13323192 0.10120864
0003e0 99 b7 97 bd d2 2f fa 3d 03 96 68 39 15 62 5f 3d
       -0.07408065 0.12216152 0.00022181128 0.054536898
0003f0 2b 5b 64 3d 98 52 48 bd 68 6b 12 3e 06 85 a4 3d
       0.055751007 -0.048906893 0.14298785 0.08033185

encoder.wave_layers.1.conv_dilation.bias f4 [32]
000000 15 0b 8f 3d ed 84 86 bd eb 19 2f 3d 98 a1 b9 3d
       0.069845356 -0.06568322 0.042749327 0.09064025
000010 70 43 bf bd f3 d0 1d bd 54 6f 89 bc e3 a1 97 bd
       -0.093390346 -0.038529348 -0.016776718 -0.07403924
000020 fe 01 d0 3d 09 15 08 3e cb 8f 1d 3d db 66 ce bd
       0.1015663 0.13289274 0.03846721 -0.10078212
000030 bd 1a 0c be b3 f4 ad 3d 48 83 a0 3d a3 97 9b 3d
       -0.13682075 0.08493938 0.0783754 0.07597282
000040 cc 95 ae bd 01 fa 9c 3d 7d ee eb bd 71 b1 e1 3c
       -0.08524665 0.07664872 -0.115200974 0.027550431
000050 ef 63 09 bd b9 4e 32 bd 46 3f a0 bd 20 f1 f7 3c
       -0.03354257 -0.043532107 -0.078245685 0.030266345
000060 86 89 3d bd 27 e4 f8 3c 77 48 ab bb a9 c7 6a 3d
       -0.04627373 0.030382229 -0.0052271443 0.057319317
000070 30 7f 89 3d 12 22 e3 3c 97 29 68 bc 80 2d b2 bd
       0.06713712 0.027726207 -0.014170072 -0.08700085
